Sijoon Lee/data/saved/lstm_model.pt (torch_old, 177458 bytes, 5 tensors)

lstm.weight_ih_l0 f4 [400, 8]
0	0x3d836872	0.06416406
1	0x3d79b019	0.060958955
2	0xbd554a5e	-0.052072875
3	0x3d782449	0.06058148
4	0x3d5f573d	0.054526556
5	0xbc164068	-0.009170629
6	0xbdb30970	-0.087420344
7	0xbe01d13c	-0.12677473
8	0x3dabe3aa	0.08393033
9	0xba862c51	-0.0010236596
10	0xbd981ab3	-0.074269675
11	0x3da4cfc3	0.0804744
12	0x3c76bf73	0.0150602935
13	0xbc06dc0e	-0.008231176
14	0x3d2c5180	0.042069912
15	0xbddf7405	-0.10910801
16	0xbdb26079	-0.08709807
17	0xbcc53e30	-0.024077505
18	0x3d11180d	0.035423327
19	0x3dd9d9b8	0.1063723
20	0x3c3bcf88	0.0114630535
21	0xbd6a4aaa	-0.05720011
22	0x3b5ee0ff	0.003400862
23	0x3da36de7	0.079799466
24	0xbd1b3eee	-0.03790181
25	0xbca2f1aa	-0.019890625
26	0xbdba54b9	-0.09098191
27	0xbd1a1030	-0.037613094
28	0x3c776e87	0.015102035
29	0x3daaa755	0.08332697
30	0x3cacb840	0.021083951
31	0x3b3b009e	0.0028534303
32	0xbd895b54	-0.067068726
33	0xbdb32e65	-0.087490834
34	0xbd86425f	-0.06555628
35	0xbd976757	-0.073927574
36	0xbc1d8e8e	-0.009616507
37	0x3d4bb324	0.04973139
38	0x3dba22c3	0.090886615
39	0xbce9ade1	-0.028525295
40	0x3d019c6d	0.03164332
41	0x3de0f233	0.10983696
42	0x3bdf3110	0.0068112686
43	0x3db76782	0.089552894
44	0x3bd61454	0.006533185
45	0x3daf028c	0.08545408
46	0xbda0937c	-0.078406304
47	0x3da96b69	0.0827244
48	0x3bda3626	0.006659287
49	0xbdba5d99	-0.090998836
50	0x3da9ce52	0.082913056
51	0xbd4c484b	-0.04987363
52	0x3dc4326b	0.09579929
53	0xbd83c254	-0.064335495
54	0xbd546d50	-0.05186206
55	0xbdba668c	-0.091015905
56	0xbd0abd86	-0.03387215
57	0x3d3f6946	0.046731256
58	0xbd88c90c	-0.06678972
59	0xbd4972f9	-0.049181912
60	0xbd09768d	-0.033560324
61	0xbda366b8	-0.079785764
62	0x3c2c66a4	0.010522518
63	0xbda32553	-0.079661034
64	0xbcb2275e	-0.021747287
65	0xbd8c8a05	-0.06862263
66	0xbd4a25f5	-0.049352605
67	0xbcca97f1	-0.024730654
68	0xbc290158	-0.010315262
69	0xbdc4e528	-0.096140206
70	0xbbe81fd8	-0.007083874
71	0x3c1a0809	0.00940133
72	0x3c85793f	0.016293166
73	0x3d3cb3dc	0.046069965
74	0x3da05d12	0.07830252
75	0x3cea81ac	0.028626285
76	0x3da911e5	0.08255366
77	0xbdce1a55	-0.10063616
78	0xbdc26fe3	-0.09493997
79	0x3c741e52	0.014899807
80	0xbcf5c640	-0.03000176
81	0xbbb6eb98	-0.005582284
82	0xbdb1bf04	-0.086790115
83	0x3dac2911	0.0840627
84	0xbdad0157	-0.08447521
85	0x3ce255da	0.027628828
86	0x3db25364	0.08707312
87	0xbd886372	-0.06659593
88	0xbd2ee424	-0.04269804
89	0x3d804db5	0.062648214
90	0xbdb49240	-0.088169575
91	0x3d218242	0.039430864
92	0xbdc3fd2f	-0.09569775
93	0xbd6853a8	-0.056720406
94	0x3d07e2b3	0.03317518
95	0xbda1fcb1	-0.07909525
96	0xbca5b218	-0.020226523
97	0x3d261302	0.04054547
98	0x3d016d44	0.031598344
99	0xbd09be43	-0.033628713
100	0xbd86a063	-0.0657356
101	0x3d815af0	0.06316173
102	0x3d5080fe	0.050904267
103	0x3dbcf545	0.09226469
104	0x3da3535b	0.07974883
105	0x3d091ffb	0.033477765
106	0xbd68ed71	-0.056867067
107	0x3d606d6d	0.054791857
108	0xbd843517	-0.064554386
109	0x3dac0a94	0.08400455
110	0x3d3d8e72	0.046278425
111	0xbdbdf6ee	-0.09275614
112	0xbd3bf6df	-0.04588973
113	0xbd5e5c00	-0.054286957
114	0xbddc3ce9	-0.10753805
115	0x3ba204d9	0.0049444255
116	0x3dccfcd9	0.10009164
117	0x3b8bb529	0.0042635393
118	0x3d082275	0.033235986
119	0xbda1e82b	-0.07905611
120	0xbdaf3518	-0.08555049
121	0x3c98a7f3	0.018634772
122	0x3d825c3b	0.06365248
123	0x3dabaa50	0.08382094
124	0x3d012fa6	0.03153958
125	0x3d76d65b	0.06026302
126	0xbda1b987	-0.07896715
127	0x3d221283	0.039568435
128	0x3deb876d	0.1150044
129	0x3d1f3946	0.03887298
130	0xbd9428ac	-0.0723432
131	0xbd8ea85f	-0.06965708
132	0x3c87e52d	0.016588772
133	0x3a11fb85	0.00055687904
134	0x3cd324f4	0.025774457
135	0x3d8ebb59	0.069693275
136	0x3df3a2d9	0.11896295
137	0xbd564906	-0.052315734
138	0xbd23ebc2	-0.040019758
139	0xbdb66f46	-0.089079425
140	0x3d4cf4bb	0.05003808
141	0x3d316441	0.0433085
142	0xb96b4710	-0.0002243782
143	0x3c94cdbb	0.018164506
144	0xbcac4045	-0.02102674
145	0xbd603c8c	-0.054745242
146	0xbcdf1380	-0.027230978
147	0x3d8f15d2	0.06986584
148	0xbdb5424a	-0.08850534
149	0x3cd882d4	0.026429571
150	0x3dc1dfc7	0.0946651
151	0xbd8f0325	-0.06983022
152	0x3c21e198	0.009880446
153	0x3d062d6b	0.032758158
154	0xbdcf07c4	-0.10108903
155	0x3d989f1b	0.07452222
156	0xbd3fb484	-0.046803012
157	0xbc8fbd2d	-0.01754626
158	0xbcc18df8	-0.023627266
159	0x3d8c0e11	0.068386205
160	0x3d4b55c3	0.049642336
161	0xbda17d23	-0.07885196
162	0xbd77cd2e	-0.06049841
163	0x3d7f8b9d	0.062389005
164	0xbdb35e76	-0.08758251
165	0xbcff1ffe	-0.031143185
166	0x3d939c07	0.07207494
167	0x3d6710e4	0.056412593
168	0x3d99aa52	0.07503189
169	0xbd792b92	-0.060832568
170	0xbcde9b2d	-0.027173603
171	0xbd13e977	-0.03611132
172	0xbd9b7c8e	-0.07592116
173	0x3d3a5def	0.04549974
174	0xbd8249ac	-0.06361708
175	0xbc377b90	-0.011198893
176	0xbc7a826a	-0.015289882
177	0x3d9e6965	0.07734946
178	0x3cca7090	0.024711877
179	0xbdc3ecbf	-0.0956664
180	0x3d0c1c76	0.03420683
181	0x3d9b7653	0.07590928
182	0xbceebeff	-0.029143808
183	0xbcd9e6bf	-0.026599286
184	0x3dafd19e	0.08584903
185	0x3bd2c98c	0.0064327177
186	0x3cd9d63b	0.02659141
187	0x3d85428d	0.06506834
188	0x3d19e368	0.037570387
189	0xbbcff9e1	-0.0063469266
190	0xbd83c86d	-0.064347126
191	0xbdb03844	-0.08604482
192	0x3cdb5a49	0.02677645
193	0x3d3520a5	0.044220585
194	0x3d4872e0	0.04893768
195	0x3d888f4a	0.06667955
196	0x3d9a3c28	0.07531005
197	0xbd1500ba	-0.036377646
198	0xbd836e1d	-0.06417487
199	0xbd947f7f	-0.072508805
200	0xbdc78e2f	-0.09743916
201	0x3d9f35a2	0.077739015
202	0x3d1aa01c	0.03775035
203	0x3c3a4ae5	0.011370395
204	0x3d610f8f	0.05494648
205	0xbb16a91d	-0.0022988983
206	0x3da79776	0.08183186
207	0x3bcbb0d6	0.006216149
208	0xbc997770	-0.01873371
209	0xbcfe412c	-0.031036936
210	0xbde0fcd2	-0.10985722
211	0xbd8b4020	-0.0679934
212	0xbd7967e0	-0.06089008
213	0xbd965fe9	-0.07342512
214	0x3d4e0e0b	0.05030636
215	0xbcbb7e30	-0.02288732
216	0xbdd4fa55	-0.103993095
217	0xbd90b1a0	-0.07065129
218	0x3de0135d	0.10941193
219	0x3c801a25	0.015637467
220	0xbd19f4aa	-0.037586845
221	0xbdb200ba	-0.08691545
222	0x3d75558b	0.059896033
223	0xbd5bca09	-0.053659473
224	0x3cbf7cc7	0.023374928
225	0x3d939802	0.072067276
226	0x3db03479	0.08603758
227	0xbd07d8aa	-0.03316561
228	0x3d9e7af0	0.07738292
229	0xbdd82c90	-0.105553746
230	0x3db4e7ba	0.08833261
231	0x3d18ef14	0.037337378
232	0xbb066ed3	-0.0020512834
233	0xbcf3ca8f	-0.029759673
234	0x3dcf5784	0.10124114
235	0xb6dd7b66	-6.6006787e-06
236	0xbba8ca7e	-0.005151092
237	0xbdbe7acd	-0.09300766
238	0x3d71dff2	0.05905146
239	0x3b836af5	0.004010553
240	0xbc094b05	-0.008379702
241	0xbd5f8c1d	-0.05457698
242	0xba8c63f9	-0.0010710947
243	0xbd130911	-0.03589732
244	0x3cb5b034	0.022178747
245	0xbda1c5a7	-0.07899027
246	0xbcd90091	-0.026489528
247	0xbd7841bb	-0.06060956
248	0xbccc4d92	-0.024939332
249	0x3cf77e3e	0.030211564
250	0x3c787e48	0.015166827
251	0x3d5ca98c	0.05387263
252	0x3c3f82a8	0.011688866
253	0xbd80cf6a	-0.06289561
254	0xbda59fa3	-0.08087089
255	0xbdb5d762	-0.08878972

lstm.weight_hh_l0 f4 [400, 100]
0	0xbddbcb49	-0.10732133
1	0x3d35e1ce	0.044404797
2	0x3d0be29f	0.03415167
3	0x3d8fcec1	0.07021857
4	0x3b78e705	0.0037979495
5	0x3d5c8161	0.053834323
6	0xbc028d62	-0.007968279
7	0xbd84c6d8	-0.06483239
8	0x3d72e27b	0.05929802
9	0xbd80e37f	-0.062933914
10	0xbbec6c25	-0.0072150403
11	0x3d8a7c27	0.067619614
12	0xba4a566f	-0.0007718568
13	0xbdceba9e	-0.10094188
14	0x3c9f64fb	0.01945733
15	0x3df23fcf	0.11828577
16	0x3d926b86	0.07149415
17	0xbd80f122	-0.062959924
18	0x3d8873ec	0.06662735
19	0x3dbb4661	0.09144283
20	0xbc19b900	-0.009382486
21	0x3d408170	0.04699844
22	0xbda09793	-0.078414105
23	0xbd198a14	-0.037485197
24	0xbdc00123	-0.09375217
25	0x3db377fa	0.08763118
26	0xbde394df	-0.11112379
27	0x3da1f099	0.079072185
28	0xbd208f7d	-0.03919934
29	0x3d5220ac	0.05130069
30	0xbdcb2f8c	-0.09921178
31	0x3df1cd6e	0.11806761
32	0x3d963c5a	0.0733573
33	0x3c2182c5	0.009857838
34	0x3d95b64c	0.07310161
35	0x3db33119	0.08749599
36	0xba7d1275	-0.00096539344
37	0xbdb66d7c	-0.08907601
38	0x3daecde0	0.08535361
39	0xbd4b74d6	-0.04967197
40	0xbd10918f	-0.035295065
41	0xbd3f52d1	-0.04670984
42	0x3d19eb2f	0.037577804
43	0x3de09d3f	0.10967492
44	0x3d0060e2	0.031342395
45	0x3d836860	0.06416392
46	0xbd8c09d7	-0.06837814
47	0xbd9e5c59	-0.07732458
48	0xbd10627b	-0.03525017
49	0xbd1acebb	-0.03779481
50	0xbb7c191f	-0.0038467122
51	0xbd0ec26d	-0.034853388
52	0xbc5a5dde	-0.013328044
53	0x3d693ab2	0.05694074
54	0xbc8974a8	-0.016779259
55	0x3cc98e83	0.024604088
56	0xbc6c4787	-0.01442135
57	0xbd7477a2	-0.059684403
58	0x3d6e444f	0.058170613
59	0x3daa43c7	0.08313709
60	0xbd9f2a3e	-0.07771729
61	0xbc49423e	-0.01228386
62	0xbd63eed6	-0.055647694
63	0xbba64fda	-0.005075437
64	0xbc884fc6	-0.016639601
65	0xbdc46fb1	-0.09591616
66	0x3d5a07d8	0.053230137
67	0xbd71cc3e	-0.05903267
68	0xbc505618	-0.012715839
69	0xbdbff1e4	-0.09372309
70	0xbdb946de	-0.0904672
71	0x3c883266	0.016625594
72	0x3d7a8fd8	0.061172336
73	0xbd0e24fa	-0.034703232
74	0xbd86851f	-0.065683596
75	0xbd24a17f	-0.040193077
76	0xbc8dc436	-0.017305475
77	0xbd07a7a3	-0.033118855
78	0xbd63ad9e	-0.055585496
79	0xbc5422e1	-0.012947769
80	0xbc5e1767	-0.013555384
81	0x3dcdbfac	0.10046324
82	0x3d1a5c3a	0.03768561
83	0xbd0bac7b	-0.034100037
84	0x3de10cc7	0.10988765
85	0xbd2855c6	-0.041097425
86	0xbd961c0a	-0.07329567
87	0xbd718540	-0.058964968
88	0xbd8f4189	-0.06994922
89	0xbd97eac6	-0.07417826
90	0x3cc7d128	0.024391726
91	0xbdb0f2fc	-0.086400956
92	0xbc3a6dfe	-0.011378763
93	0x3cb805f6	0.02246378
94	0xbd5d310b	-0.05400185
95	0xbd28a6c2	-0.041174658
96	0x3db26475	0.08710567
97	0x3c4066aa	0.011743227
98	0xbdbcc342	-0.0921693
99	0x3c948b21	0.018132748
100	0xbcee64aa	-0.029100735
101	0x3d9349f8	0.07191843
102	0xbd8d938d	-0.06912909
103	0x3d103ddb	0.03521524
104	0xbd127fd5	-0.03576644
105	0xbcf3abc3	-0.029744988
106	0x3d0dbf71	0.0346064
107	0xbd80ed3b	-0.06295248
108	0x3c8116cb	0.015757939
109	0xbdafe7e9	-0.08589155
110	0x3a638145	0.00086786255
111	0xbcb99f6e	-0.02265903
112	0xbd62016e	-0.055177145
113	0x3a1fa0fe	0.00060893584
114	0x3d9c8f9b	0.07644578
115	0x3d4e1aa1	0.050318364
116	0xbd4a70c5	-0.04942395
117	0x3d4443be	0.047916166
118	0xbd44a97a	-0.048013188
119	0x3dbc3ca6	0.09191255
120	0xbd8ca432	-0.06867255
121	0xbcfa370f	-0.030543832
122	0xbd0e6c7f	-0.03477144
123	0xbd88a390	-0.06671822
124	0x3d057b78	0.032588452
125	0x3b301b03	0.002687157
126	0x3d82b6ac	0.06382498
127	0xbd12a9f3	-0.035806607
128	0xbad35dd0	-0.0016125981
129	0xbdea19f0	-0.114307284
130	0x3bd35512	0.00644935
131	0x3dc651d7	0.096835785
132	0x3c96e5bf	0.018420098
133	0xbbbcd1bd	-0.0057623074
134	0xbd5d28b0	-0.05399388
135	0xbd71c7c2	-0.059028395
136	0x3d7ad401	0.06123734
137	0x3dc82ad7	0.09773796
138	0xbdabd950	-0.083910584
139	0xba97004a	-0.0011520472
140	0xbd474a17	-0.048654642
141	0xbdc623c2	-0.09674789
142	0xbd731110	-0.059342444
143	0x3d882361	0.06647373
144	0x3d8b202d	0.067932464
145	0xbc4ebdcf	-0.012618496
146	0xbd8c7b64	-0.068594724
147	0x3d17cfea	0.037063517
148	0x3d56e26e	0.052462034
149	0x3d8586a7	0.065198235
150	0xba819068	-0.0009884955
151	0x3d75fd19	0.060055826
152	0xbddc4b9e	-0.1075661
153	0x3da7a793	0.08186259
154	0x3d89e470	0.06733024
155	0xbdb302f2	-0.08740796
156	0xbcb9ebb1	-0.022695394
157	0x3dd2b09c	0.10287592
158	0x3d001035	0.031265456
159	0x3b8e2299	0.0043376205
160	0x3c9e2064	0.019302554
161	0xbc3f7696	-0.011685988
162	0xbdfbbcf5	-0.122919
163	0xbbb3795a	-0.0054771127
164	0xbc034a30	-0.008013293
165	0xbd70b51c	-0.05876647
166	0x3cd09333	0.025460815
167	0xbb8e87f1	-0.0043497016
168	0x3c6facf9	0.014628642
169	0x3cbe41e6	0.023224782
170	0x3c9b4f1a	0.018958617
171	0xbd1d8294	-0.038454607
172	0x3d80dc53	0.062920235
173	0xbcdbb7cc	-0.02682104
174	0x3d75ac37	0.05997869
175	0xbd866f8c	-0.06564245
176	0x3d3b1927	0.045678284
177	0x3de7812d	0.11303935
178	0xbda16c60	-0.07881999
179	0xbdaf976b	-0.085738026
180	0xbb381570	-0.002808895
181	0x3c089074	0.008335222
182	0x3c3ea328	0.011635579
183	0xbd6cada0	-0.05778277
184	0xbcb72d48	-0.022360459
185	0xbd29dd92	-0.04147107
186	0xbdb55f62	-0.088560835
187	0xbc924480	-0.017854929
188	0x3c774f64	0.015094612
189	0xbd9bc5eb	-0.07606109
190	0x3d15cae6	0.036570452
191	0x3da97a88	0.08275324
192	0xbc8f7920	-0.017513812
193	0xbd4377a2	-0.047721513
194	0xbc183259	-0.009289348
195	0xbb88deaa	-0.0041769342
196	0xbc8bce98	-0.017066285
197	0x3b3cf6c0	0.0028833598
198	0xbd624f95	-0.055251677
199	0x3d92f15c	0.07174942
200	0xbd936698	-0.071973026
201	0x3d80f410	0.06296551
202	0x3d55cc7f	0.052196976
203	0xbdbe5eff	-0.09295463
204	0x3d93ec7a	0.07222839
205	0x3da40bda	0.08010073
206	0xbd5b4a37	-0.053537574
207	0xbd133d24	-0.03594698
208	0x3c30c523	0.010789189
209	0xbd93e2b1	-0.07220972
210	0xbdb9ba44	-0.090687305
211	0x3d42d2e1	0.04756439
212	0xbd779c61	-0.06045187
213	0xbd38804a	-0.04504422
214	0x3d817e40	0.063229084
215	0xbd43573b	-0.04769061
216	0x3d843290	0.064549565
217	0xbd990205	-0.07471088
218	0x3d3a6e5a	0.045515396
219	0xbcb26323	-0.021775788
220	0xbdabd600	-0.08390427
221	0x3cb3d747	0.021953238
222	0x3cfe53b2	0.031045768
223	0x3cbf94d2	0.023386393
224	0xbd496832	-0.049171634
225	0xbdb8fa26	-0.09032087
226	0xbcf48433	-0.029848194
227	0x3d26f877	0.0407643
228	0xbdb232cf	-0.08701097
229	0x3c20cd42	0.009814562
230	0xbd1cfd30	-0.038327396
231	0x3dbe7b27	0.09300833
232	0x3ce7b243	0.028283244
233	0x3d2e998b	0.0426269
234	0xbda2f7a7	-0.07957392
235	0xbd89dba2	-0.06731345
236	0x3d6d5619	0.057943437
237	0xbcee3986	-0.029080164
238	0xbdb2549c	-0.08707544
239	0x3da5c5e6	0.08094387
240	0xbd04af89	-0.032393966
241	0xbb1163ec	-0.0022184802
242	0xbc76e1da	-0.015068496
243	0xbdb5e04e	-0.08880673
244	0xbb291886	-0.002580197
245	0x3d7cafce	0.061691098
246	0xbd7d653d	-0.061864126
247	0xbd25929a	-0.040423013
248	0x3d1047c8	0.035224706
249	0x3dbf6596	0.09345548
250	0x3ae60d8a	0.0017551642
251	0x3d5a5425	0.053302903
252	0x3d3f5094	0.046707705
253	0xbdbe2588	-0.09284502
254	0xbd9188e4	-0.07106188
255	0xbba36c60	-0.0049872845

lstm.bias_ih_l0 f4 [400]
0	0x3d44a377	0.048007455
1	0xbd1126f9	-0.035437558
2	0xbce855da	-0.02836125
3	0x3d8dd358	0.06925076
4	0x3d692b14	0.056925848
5	0x3da2a543	0.079416774
6	0xbbd368bf	-0.0064516957
7	0xbd8db789	-0.06919772
8	0x3d898a6f	0.06715857
9	0x3c173438	0.0092287585
10	0xbdab320f	-0.08359157
11	0x3d57fcb8	0.052731246
12	0x3cea4858	0.02859895
13	0xbd2c9eed	-0.04214375
14	0xbd1bc05b	-0.03802524
15	0xbbbe19f1	-0.0058014323
16	0x3dbe3b35	0.092886366
17	0x3d91be78	0.07116407
18	0x3dcab970	0.09898651
19	0xbd9dc2ac	-0.07703146
20	0x3d840c23	0.064476274
21	0x3d3e52d3	0.046465706
22	0x3d8d0a3d	0.068867184
23	0xbd53658d	-0.05161052
24	0x3d9a05dc	0.07520649
25	0x3d7da50a	0.06192497
26	0xbcd73343	-0.02626956
27	0xbdaf908e	-0.085724935
28	0xbd5ede7a	-0.05441139
29	0xbcd6c63c	-0.026217572
30	0x3d95c75b	0.07313415
31	0xbb096ac0	-0.002096817
32	0xbc6c7a58	-0.014433466
33	0xbd838476	-0.06421749
34	0x3dd1a6df	0.10236906
35	0xbd89e8a6	-0.06733827
36	0xbbbdfaa3	-0.0057977005
37	0x3c92f61f	0.017939625
38	0x3d7904af	0.060795482
39	0x3ce3568a	0.027751226
40	0xbd953049	-0.072846
41	0x3ce56d0c	0.0280061
42	0x3de51cea	0.111871555
43	0xbcad80a6	-0.021179508
44	0x3c00ee30	0.007869288
45	0x3c0d3cc2	0.008620443
46	0xbda8de4d	-0.082455255
47	0x3dafee20	0.085903406
48	0x3d99149d	0.07474635
49	0xbd86a84c	-0.06575069
50	0x3db046d0	0.086072564
51	0xbcb05016	-0.021522563
52	0xbc618a47	-0.013765878
53	0x3d6bdaff	0.057581898
54	0xbd2cd65c	-0.042196617
55	0x3cdef000	0.02721405
56	0x3b84af98	0.0040492527
57	0x3c12dc7a	0.0089636985
58	0xbd8f8ddd	-0.0700948
59	0x3c4e2337	0.012581638
60	0xbca12185	-0.019669304
61	0xbd423047	-0.047409322
62	0x3da29f0a	0.079404905
63	0x3dc8602a	0.09783967
64	0xbce5ceaf	-0.028052656
65	0x3c14fd47	0.009093589
66	0x3ccf6855	0.025318304
67	0x3ca6d718	0.020366237
68	0x3ce12bd9	0.027486729
69	0x3cac01fb	0.020997038
70	0x3d8492eb	0.06473335
71	0xbd4888a8	-0.04895845
72	0x3db0f1d6	0.086398765
73	0xbd033906	-0.032036804
74	0x3be91336	0.007112886
75	0xbc5d0d3a	-0.013491923
76	0x3dd7e80a	0.10542305
77	0x3ac55623	0.0015055578
78	0x3dc3beda	0.095578864
79	0xbd8eb9b5	-0.069690146
80	0xbb5b57e2	-0.003346913
81	0x3de1b134	0.11020127
82	0xbd42da39	-0.047571395
83	0xbd741b43	-0.05959631
84	0xbd552001	-0.052032474
85	0x3da5a0e2	0.080873266
86	0xbc8df58e	-0.017329004
87	0xbd560401	-0.052249912
88	0xbd6cb148	-0.057786256
89	0xbce6978e	-0.028148439
90	0xbd17fab0	-0.03710431
91	0x3dcced20	0.100061655
92	0x3da41368	0.08011514
93	0x3d1634d6	0.036671482
94	0x3aa620da	0.0012674585
95	0xbd693167	-0.05693188
96	0x3d381a22	0.044946797
97	0xbd35aa32	-0.044351764
98	0x3b812b7c	0.0039419513
99	0xbb665e21	-0.003515132
100	0x3db160d7	0.08661049
101	0xbd1421f8	-0.036165208
102	0xbcdcd8d8	-0.026958868
103	0xbb34bde2	-0.0027579
104	0xbdb740a8	-0.08947879
105	0x3d54efa8	0.051986367
106	0x3c297868	0.0103436485
107	0xbd879524	-0.06620243
108	0xbcadfa34	-0.02123747
109	0x3da8f716	0.08250253
110	0x3dbe769a	0.09299965
111	0x3d93e9c2	0.0722232
112	0x3d3115c7	0.04323366
113	0xbc2c87fd	-0.010530469
114	0xbbca8303	-0.0061801686
115	0xbcde26b8	-0.027118072
116	0xbbeab14b	-0.0071622483
117	0xbc9a4d32	-0.018835638
118	0x3d010676	0.031500302
119	0x3d5391cc	0.051652715
120	0x3d31bed8	0.043394893
121	0x3dc203d8	0.094733894
122	0x3db868d4	0.090043694
123	0xbbaaf909	-0.0052176756
124	0xbd2d7187	-0.042344596
125	0xbd5c6cb7	-0.053814616
126	0x3d72ce0c	0.059278533
127	0x3c845f23	0.016158646
128	0x3dcfad3c	0.10140464
129	0xbc5951a6	-0.013264095
130	0x3b965466	0.004587698
131	0xbd3189ee	-0.04334443
132	0x3d8da0d3	0.069154404
133	0x3db1ef7b	0.086882554
134	0xbcc500d8	-0.024048254
135	0x3d4379c5	0.04772355
136	0xbad36631	-0.0016128478
137	0xbd39cc9c	-0.045361146
138	0xbcf39510	-0.029734164
139	0xbd7047d9	-0.05866227
140	0x3d8a30b8	0.067475736
141	0xbcd2fb8f	-0.025754718
142	0x3dcaf0ee	0.09909235
143	0xbd714736	-0.058905803
144	0x3d5f885e	0.05457341
145	0x3cd09423	0.025461262
146	0xbcbcca40	-0.023045659
147	0xbdd4ab43	-0.10384228
148	0xbd9976d0	-0.07493365
149	0x3ce026d2	0.027362261
150	0x3d92c0fa	0.071657136
151	0x3cc95926	0.024578642
152	0x3dd0eff2	0.10202016
153	0x3d279d11	0.040921275
154	0xbd2f6101	-0.04281712
155	0xbdaabe5f	-0.08337092
156	0xbd960264	-0.07324675
157	0x3c0d8881	0.008638502
158	0x3dcc8b2a	0.09987481
159	0x3da2454a	0.07923372
160	0xba3c5d90	-0.0007185573
161	0x3db205ab	0.08692487
162	0x3cfbb578	0.03072618
163	0xbd1475ed	-0.036245275
164	0x3d2b638f	0.041842993
165	0x3c491b4b	0.012274574
166	0x3db26c39	0.08712048
167	0x3de4c81b	0.111709796
168	0xbd432c5d	-0.04764973
169	0xbcea0efa	-0.028571595
170	0x3daab489	0.083352156
171	0xbc894e71	-0.016761037
172	0x3cf14142	0.029450063
173	0x3db4b5ad	0.088237144
174	0x3c2f0931	0.010683344
175	0xbc17448b	-0.0092326505
176	0x3c6403d7	0.013916931
177	0x3c2f3685	0.010694151
178	0xbccede64	-0.025252528
179	0xbce2dbdf	-0.027692733
180	0x3cbb252d	0.022844875
181	0x3d171a86	0.03689053
182	0x3dcd2b68	0.10018045
183	0x3db87130	0.09005964
184	0x3dccd9e3	0.10002496
185	0xbd615d6e	-0.055020742
186	0x3ddad5cb	0.10685309
187	0x3de57601	0.11204148
188	0x3cb1ebc0	0.02171886
189	0x3dbf3e91	0.093381055
190	0xbda3485f	-0.07972788
191	0x3cd4a115	0.025955716
192	0xbb6ded6b	-0.0036304842
193	0xbc8230a0	-0.015892327
194	0x3cec2503	0.028826242
195	0xbdaac5be	-0.083384976
196	0x3ca16572	0.019701693
197	0x3dafd116	0.08584802
198	0xbd758ec0	-0.05995059
199	0x3c600e84	0.013675336
200	0xbdbfdbb5	-0.09368078
201	0xbd8c173f	-0.06840371
202	0x3da6c41a	0.08142872
203	0xbd942ef5	-0.07235519
204	0xbd0aab92	-0.03385503
205	0xbc34aa82	-0.01102698
206	0xbd8b3259	-0.067967124
207	0x3db2a3d3	0.08722653
208	0x3cd36d7d	0.025809044
209	0x3d4ddc12	0.050258704
210	0xbc9aade5	-0.018881747
211	0x3dd2f8f9	0.10301394
212	0xbdc89d09	-0.09795577
213	0xbd614509	-0.054997478
214	0xbdac1dbd	-0.084041096
215	0x3d99629a	0.0748951
216	0x3d9214a1	0.07132841
217	0x3dd33460	0.10312724
218	0x3db40dd9	0.08791704
219	0x3d31c274	0.043398336
220	0x3d9dfc3f	0.07714128
221	0xbdaf223b	-0.08551451
222	0xbbf76402	-0.0075497637
223	0x3d86e7f0	0.06587207
224	0x3c51459c	0.012772944
225	0x3d059bcc	0.032619283
226	0xbdadd8ea	-0.08488639
227	0xbd8e7985	-0.06956772
228	0x3db9fc99	0.09081382
229	0xbddaa6c8	-0.10676342
230	0xbc8b2959	-0.01698749
231	0xbd8782f5	-0.06616775
232	0xba8fcc04	-0.0010970836
233	0xbdc0a4a2	-0.09406401
234	0x3cb9a42d	0.022661293
235	0x3d605a13	0.0547734
236	0x3cfc2e1c	0.030783705
237	0x3d23f408	0.04002765
238	0x3d7ee564	0.062230483
239	0x3cc64267	0.024201585
240	0x3cbbcfc5	0.02292622
241	0xbda5f528	-0.081034005
242	0xbd9537f8	-0.07286066
243	0x3dd0c33d	0.10193489
244	0xbd87ff45	-0.06640486
245	0xbb909645	-0.004412445
246	0x3dbb7f88	0.09155184
247	0xbb7e0091	-0.0038757662
248	0xbd85450d	-0.06507311
249	0x3d34098a	0.04395441
250	0x3d9f8da8	0.07790691
251	0x3d1e3e6f	0.03863376
252	0xbbb9cc97	-0.005670141
253	0xbc92b1d4	-0.01790706
254	0x3bdff93d	0.0068351314
255	0x3d5542ad	0.05206554

lstm.bias_hh_l0 f4 [400]
0	0xbcb97dac	-0.022642933
1	0x3cd2f2c9	0.025750535
2	0xbc914cc6	-0.017736804
3	0xbd29f548	-0.041493684
4	0xbd988eae	-0.07449089
5	0xbcfad19c	-0.030617528
6	0x3dd396fe	0.10331534
7	0x38892ed9	6.541395e-05
8	0x3d4268c0	0.04746318
9	0xbd6743f9	-0.05646131
10	0xbd4c5a91	-0.04989106
11	0x3de6912a	0.112581566
12	0x3d8c89a4	0.0686219
13	0xbd91500c	-0.07095346
14	0x3dd7c6e1	0.1053598
15	0xbd391610	-0.045187056
16	0x3d973fdb	0.07385226
17	0x3d3d3522	0.04619325
18	0x3c0c849c	0.008576538
19	0xbceb94b5	-0.028757432
20	0x3d43be3b	0.04778884
21	0x3d63f2e7	0.05565157
22	0x3db6119d	0.08890078
23	0xbccf70d7	-0.02532236
24	0xbd4460b2	-0.04794378
25	0x3d95b91a	0.07310696
26	0xbd3b43a5	-0.045718808
27	0x3c99d377	0.018777592
28	0x3d2613ee	0.04054635
29	0x3db60dda	0.08889361
30	0x3d92484d	0.071426965
31	0xbd9ca482	-0.07648565
32	0xbce803f0	-0.02832219
33	0x3d86dbdc	0.065849036
34	0xbc44af83	-0.012004736
35	0xbc8976ae	-0.016780224
36	0x3dbd25f9	0.09235758
37	0x3d6665db	0.05624948
38	0xbd7fb798	-0.062430948
39	0x3d326f78	0.043563336
40	0xbd0e1deb	-0.0346965
41	0x3d57e4ef	0.052708562
42	0xbd4cc574	-0.049992993
43	0x3d03216d	0.0320143
44	0x3dadd473	0.08487787
45	0xbd5590e9	-0.05214015
46	0x3dce15fb	0.10062786
47	0x3d900e6c	0.07034001
48	0x3d99d556	0.07511394
49	0xbbe10c66	-0.006867933
50	0x3c30cdb8	0.010791235
51	0xbce5fade	-0.028073724
52	0x3dbcc25e	0.0921676
53	0xbc634572	-0.0138715375
54	0xbd955e6c	-0.072934
55	0x3d39a65b	0.045324665
56	0x3d44a481	0.048008446
57	0xbcdd385d	-0.027004415
58	0x3d51508b	0.051102202
59	0xbd8db772	-0.06919755
60	0xbd50f670	-0.05101627
61	0x3de6bef6	0.11266892
62	0xbd5b99f6	-0.053613625
63	0x3ddf4c68	0.10903245
64	0x3cdda6bb	0.027057042
65	0x39d32f18	0.00040280144
66	0x3d92d3f0	0.0716933
67	0xbd81e7ad	-0.06343017
68	0xbd858db2	-0.06521167
69	0xbd55f373	-0.052234124
70	0x3d84f9dc	0.064929694
71	0x3c82b980	0.015957594
72	0x3ce61988	0.028088346
73	0xbcf4b750	-0.029872566
74	0x3db5d385	0.08878235
75	0x3d58f58b	0.052968543
76	0x3c856d27	0.0162874
77	0x3dd62c37	0.10457652
78	0x3c9a4170	0.018830031
79	0xbb8b4935	-0.0042506703
80	0x3c13b702	0.0090158
81	0xba039570	-0.00050195213
82	0x3de91834	0.113815695
83	0xbc0caca3	-0.008586082
84	0xbd35fcb3	-0.044430446
85	0x3d141d43	0.03616072
86	0x3b1c55bb	0.002385481
87	0x3d1541ff	0.036439892
88	0x3c7a1cd9	0.015265667
89	0x3d83b664	0.064312726
90	0xbd498f0f	-0.049208697
91	0x3dd2bfe8	0.102905095
92	0xbc36aa9d	-0.011149076
93	0x3d4ef41d	0.050525773
94	0xbc57c768	-0.013170101
95	0x3c451595	0.012029071
96	0x3d9cddc3	0.07659485
97	0x3d3ad768	0.045615584
98	0xbce5cf3f	-0.028052924
99	0xbcdbd8ef	-0.02683684
100	0x3d139cef	0.036038335
101	0x3da1af31	0.07894743
102	0x3d106bf6	0.03525921
103	0xbca19a15	-0.019726792
104	0x3c962fc9	0.018333333
105	0x3cb10684	0.021609552
106	0x3daa2a1f	0.08308815
107	0x3cce31a6	0.025170159
108	0x3d7f3624	0.062307492
109	0xbd85f91e	-0.06541656
110	0x3d75f557	0.060048427
111	0x3dc37952	0.095446244
112	0xbcba5172	-0.022743914
113	0xbd2d21db	-0.042268615
114	0xbd6d05d5	-0.05786689
115	0x3d0a0724	0.033698216
116	0x3d054386	0.0325351
117	0x3b4602c0	0.0030214041
118	0xbd16d48e	-0.0368238
119	0x3d863712	0.065534726
120	0x3d61ce5a	0.055128433
121	0xbda57398	-0.080786884
122	0x3cacb749	0.02108349
123	0x3dd421e1	0.103580244
124	0xbd935a6b	-0.0719498
125	0x3c823997	0.015896602
126	0xbc6aee66	-0.014339065
127	0x3da048d8	0.07826394
128	0xbd8c3e29	-0.068477936
129	0xbba98743	-0.005173595
130	0x3da02343	0.07819226
131	0x3d8a2d00	0.06746864
132	0x3d8675b9	0.065654226
133	0x3dde208b	0.10846051
134	0x3ddb6f36	0.10714571
135	0xbd3ab160	-0.045579314
136	0x3d49f496	0.04930552
137	0xbd3dd962	-0.04634989
138	0x3daf3b72	0.0855626
139	0xbdadeb7d	-0.084921815
140	0x3c345105	0.011005645
141	0x3d346cef	0.0440492
142	0x3db47ccc	0.088128656
143	0x3d741d4b	0.05959825
144	0x3dde434e	0.10852681
145	0x3c5b0b95	0.013369461
146	0xbd4a301f	-0.049362298
147	0xbd8653f5	-0.06558982
148	0x3da15828	0.078781426
149	0xbd97f1e8	-0.07419187
150	0xbd29f055	-0.041488964
151	0x3d386315	0.045016367
152	0x3d837ad4	0.06419912
153	0xbc561b51	-0.013068036
154	0x3c9e24c3	0.019304639
155	0x3ddeabf2	0.1087264
156	0xbb61fa28	-0.003448138
157	0x3dd6167d	0.10453508
158	0x3dc86bd8	0.097861946
159	0x3c479ce0	0.012183398
160	0xbd57411e	-0.052552335
161	0x3da6d079	0.08145232
162	0x3d115fcb	0.035491746
163	0xbd6c8d05	-0.057751674
164	0x3c828016	0.015930217
165	0x3d310718	0.043219656
166	0x3ddfb6e3	0.10923555
167	0x3dc8e8f1	0.09810055
168	0xbdb2dd26	-0.08733587
169	0x3d7868cf	0.06064683
170	0x3cab359b	0.020899585
171	0x3d6eea99	0.0583292
172	0xbcdbc366	-0.026826572
173	0xbb12f437	-0.0022423395
174	0xbcaf104e	-0.02137008
175	0x3d0dabbf	0.034587618
176	0x3db6af50	0.08920157
177	0x3c682809	0.014169701
178	0x3c8ffd83	0.017576938
179	0x3d9b70af	0.07589852
180	0xbc8d90bf	-0.017280934
181	0x3ba6e505	0.005093219
182	0x3c42d2c6	0.011891073
183	0xbd9bc851	-0.07606567
184	0x3d16068c	0.036627337
185	0xbd9e1d49	-0.077204295
186	0xbd9e1d78	-0.077204645
187	0xbd88e17b	-0.06683632
188	0x3d7cc54e	0.061711602
189	0x3d628e06	0.055311225
190	0xbd3d0ee7	-0.04615679
191	0xbcff76d8	-0.031184599
192	0xbd90b91e	-0.07066558
193	0x3dc8096b	0.09767421
194	0xbd60fc03	-0.054927837
195	0x3dc92112	0.09820761
196	0x3d143439	0.036182616
197	0xbd3e34f0	-0.046437204
198	0x3daa87e0	0.08326697
199	0x3cc0014c	0.023438118
200	0x3b130151	0.0022431205
201	0xbc66b734	-0.014081765
202	0xbd83572d	-0.06413112
203	0x3ddea771	0.10871781
204	0x3ce472cf	0.027886776
205	0xbc902fe8	-0.017600968
206	0xbd394c71	-0.045238916
207	0x3d617969	0.055047426
208	0x3dafdf89	0.08587558
209	0xbd7be032	-0.061493106
210	0xbdb4fb52	-0.08836998
211	0xbd1c6a50	-0.038187325
212	0x3c5211cf	0.012821629
213	0xbd8b4382	-0.067999855
214	0x3d99c58a	0.07508381
215	0x3de162b0	0.11005151
216	0x3daa43f6	0.08313744
217	0xbd1a4829	-0.037666474
218	0xbd891eae	-0.06695305
219	0xbd0447a8	-0.0322949
220	0xbd18ec58	-0.03733477
221	0xbcc783eb	-0.024354896
222	0x3d8d06e6	0.068860814
223	0x3d668954	0.05628331
224	0xbd88cccf	-0.06679689
225	0xbdcd7884	-0.10032752
226	0xbcee9cae	-0.029127445
227	0xbd7cc52b	-0.06171147
228	0x3db478ed	0.08812127
229	0xbc25a51c	-0.010110166
230	0xbd37af96	-0.044845186
231	0x3ddac96a	0.10682948
232	0xbcf4e562	-0.029894534
233	0x3da21b1f	0.07915329
234	0xbc4f7cdb	-0.012664045
235	0xbd2ca927	-0.042153504
236	0x3dc813c3	0.09769394
237	0xbd95b704	-0.07310298
238	0xbcd6b4c2	-0.026209239
239	0xbd3e7ce4	-0.046505824
240	0x3d6f3f53	0.05841
241	0xbde3c396	-0.111212894
242	0xbd9d280c	-0.07673654
243	0xbd33d155	-0.043900806
244	0x3ca7a67c	0.020465128
245	0x3da42dd6	0.08016555
246	0xbdb28f7e	-0.08718775
247	0x3da4d76f	0.08048903
248	0x3d02a1fb	0.031892758
249	0xbdbc2aac	-0.091878265
250	0xbd5563e5	-0.05209722
251	0x3d24f43f	0.040271994
252	0xbd3277c2	-0.04357124
253	0x3d7e70c0	0.062119246
254	0xbc076c1e	-0.008265523
255	0xbda25a1a	-0.07927342

fc.weight f4 [1, 100]
0	0xbd46abc7	-0.048503663
1	0xbc417aa8	-0.011809029
2	0xbd774198	-0.06036529
3	0xbd7a6742	-0.06113363
4	0xbda0c80a	-0.078506544
5	0xbdd617f7	-0.1045379
6	0x3d036ca4	0.03208603
7	0xbc757ba3	-0.014983091
8	0xbdac195e	-0.08403276
9	0xbde8864b	-0.11353739
10	0x3d5d2fdb	0.054000717
11	0xbcd33635	-0.025782684
12	0x3dee0a67	0.11623078
13	0xbd02bf71	-0.031920854
14	0xbd48cd9c	-0.04902421
15	0xbd4c569a	-0.049887277
16	0x3d5e9625	0.054342408
17	0x3d60644a	0.054783143
18	0x3d8ff8af	0.070298545
19	0xbd932702	-0.071851745
20	0xbc575259	-0.013142192
21	0xbd243add	-0.0400952
22	0xbda0112e	-0.07815777
23	0x3d9051d4	0.070468575
24	0xbdd92aac	-0.10603842
25	0x3c01d5f2	0.007924544
26	0xbd983e9c	-0.07433817
27	0x3d04dde6	0.03243818
28	0xbd435bc2	-0.04769493
29	0x3dcadad9	0.09905023
30	0xbb0a4ed9	-0.0021104126
31	0x3dd8f1fb	0.10593029
32	0xbdbe8f6b	-0.093046986
33	0xbdb4d437	-0.08829539
34	0xbbc98ad0	-0.006150581
35	0xbd0897f3	-0.033348035
36	0xbbeee64d	-0.0072906376
37	0xbd969795	-0.07353131
38	0xbdbc5b40	-0.09197092
39	0x3c016c9e	0.0078994315
40	0xbcd95dc8	-0.026533976
41	0xbd80623e	-0.06268738
42	0xbd012cee	-0.03153699
43	0xbcde6996	-0.027149957
44	0xbc1d92f7	-0.009617559
45	0xbd9cd079	-0.076569505
46	0xbd69ffe4	-0.057128802
47	0x3dae3744	0.08506635
48	0xbd50e1a7	-0.05099645
49	0xbd94b1fb	-0.072605096
50	0x3df962f4	0.12177077
51	0x3d5c286c	0.053749487
52	0xbdb18e71	-0.08669747
53	0xbd60ae4a	-0.054853715
54	0x3c7914cf	0.015202715
55	0x3d2e1bf1	0.042507116
56	0xbcf86a84	-0.030324228
57	0xbda2773b	-0.07932898
58	0xbcd25408	-0.025674835
59	0x3d6bf136	0.057603084
60	0x3d1aef2b	0.037825745
61	0x3c25ab7b	0.010111685
62	0xbce349eb	-0.027745208
63	0x3d4fd5f4	0.05074115
64	0x3ddf58cc	0.109056085
65	0xbc1b2352	-0.00946887
66	0xbc2147fc	-0.009843823
67	0x3cfc26ea	0.030780274
68	0xbd79edac	-0.061017677
69	0x3d8ffa3a	0.07030149
70	0x3d3953a3	0.045245778
71	0xbd953759	-0.07285947
72	0xbc984167	-0.018585874
73	0xbd1f0c9f	-0.038830396
74	0xbd7313b1	-0.05934495
75	0x3d8c8d1e	0.068628535
76	0xbd24a9af	-0.040200885
77	0x3d482dd6	0.048871838
78	0x3dd09d25	0.10186223
79	0x3d9add6e	0.075617656
80	0x3be0f97a	0.0068656774
81	0x3d9f2ed1	0.077726014
82	0xbda76fcb	-0.0817562
83	0x3c9fed81	0.01952243
84	0xbb11aa98	-0.0022226926
85	0xbd3db8a2	-0.046318658
86	0x3c8608f2	0.016361687
87	0x3d9b23b6	0.07575171
88	0x3cf3538e	0.029702928
89	0x3ddb1918	0.10698146
90	0x3dc8d314	0.09805885
91	0x3d5ce4d5	0.05392917
92	0x3bb6db9e	0.0055803796
93	0x3aff3999	0.0019472121
94	0xbdcade4c	-0.09905681
95	0xbcaf4573	-0.02139542
96	0x3dc61007	0.09671026
97	0x3c8a0529	0.016848164
98	0x3d914af9	0.07094378
99	0xbd78d9f6	-0.06075474
